model_epoch_8.pth (torch, 35755 bytes, 54 tensors)

weight f4 [2, 1, 3, 3]
0.33779675 -0.28421825 -0.14183111 0.27303863 -0.26057836 0.1997009 -0.04672745 0.096712895
0.052152548 0.08249677 0.26473713 0.207775 0.03327294 -0.20867741 0.10962157 -0.20974977
-0.0895746 0.024045402
00000000: b2f3 ac3e 0e85 91be 2d3c 11be b8cb 8b3e
00000010: 876a 85be 657e 4c3e 4865 3fbd 6911 c63d
00000020: e99d 553d 11f4 a83d a08b 873e f8c2 543e
00000030: 3549 083d 88af 55be 4681 e03d a5c8 56be
00000040: e372 b7bd ddfa c43c

bias f4 [2]
0.005069429 -0.0064065037
00000000: 741d a63b a6ed d1bb

weight f4 [2]
0.35965297 0.5864272
00000000: 6f24 b83e 1820 163f

bias f4 [2]
0.15660974 -0.0812073
00000000: 4e5e 203e 0350 a6bd

running_mean f4 [2]
0.0131582 0.001482412
00000000: 7e95 573c 7e4d c23a

running_var f4 [2]
0.115477495 0.16396588
00000000: 777f ec3d ace6 273e

weight f4 [2, 2, 3, 3]
0.07662107 0.2085884 0.15971468 -0.15488344 -0.23703602 0.046758965 0.32195926 -0.064748436
-0.13296722 -0.062333178 0.39602908 0.05239503 0.00764562 -0.104570836 -0.35747686 -0.3395357
-0.02276046 0.1070941 0.19801567 0.1864388 0.3093066 -0.24162525 0.08216054 0.11029506
0.03822641 0.3263041 0.095911406 -0.3342677 -0.2487836 -0.00018922909 -0.032428283 0.31179225
0.0063539944 0.06898548 -0.006064283 0.28980982
00000000: 82eb 9c3d 3398 553e 3f8c 233e c499 1ebe
00000010: 92b9 72be 5486 3f3d d8d7 a43e d49a 84bd
00000020: 8f28 08be 1351 7fbd 53c4 ca3e 2c9c 563d
00000030: 1c88 fa3b 3c29 d6bd 3507 b7be a0d7 adbe
00000040: 2574 babc 2754 db3d 9fc4 4a3e d0e9 3e3e
00000050: 6f5d 9e3e 9c6c 77be c943 a83d 60e2 e13d
00000060: 4c93 1c3d 5511 a73e 336d c43d 2325 abbe
00000070: 21c1 7ebe cc6b 46b9 85d3 04bd 3ca3 9f3e
00000080: 2b35 d03b 4248 8d3d e5b6 c6bb f461 943e

bias f4 [2]
-0.0067579946 -0.003866918
00000000: 2b72 ddbb 1e6c 7dbb

weight f4 [2]
1.6535304 1.55303
00000000: e2a6 d33f b0c9 c63f

bias f4 [2]
-0.058357526 0.2402318
00000000: 4d08 6fbd 53ff 753e

running_mean f4 [2]
-0.020312052 0.19628112
00000000: 7665 a6bc ebfd 483e

running_var f4 [2]
0.05662859 0.15862046
00000000: 61f3 673d 676d 223e

weight f4 [2, 2, 3, 3]
0.19843501 0.20439358 0.36503235 -0.30939552 0.27241105 0.1650328 -0.44473955 0.030022644
-0.010853591 -0.37714452 -0.6248736 -0.40099412 0.042723484 -0.12871726 -0.005639959 -0.10088632
0.21227527 0.19034922 0.65560275 0.087980635 -0.38522783 0.73129857 0.088614985 -0.050882638
0.61223274 0.08151778 0.47462645 0.16990048 -0.20269163 0.60235447 0.46131468 0.029621432
0.4498257 0.29859152 -0.05795582 0.03852185
00000000: 8c32 4b3e 8d4c 513e 85e5 ba3e 1769 9ebe
00000010: 7679 8b3e 5cfe 283e e7b4 e3be 0cf2 f53c
00000020: 43d3 31bc 1619 c1be b7f7 1fbf 1a4f cdbe
00000030: d2fe 2e3d 75ce 03be 68cf b8bb 7d9d cebd
00000040: b05e 593e e8ea 423e 95d5 273f 312f b43d
00000050: 953c c5be 6236 3b3f c67b b53d 506a 50bd
00000060: 49bb 1c3f cbf2 a63d 3d02 f33e 64fa 2d3e
00000070: 658e 4fbe e733 1a3f 7031 ec3e a5a8 f23c
00000080: 8e4f e63e fde0 983e 1563 6dbd 16c9 1d3d

bias f4 [2]
-0.6741679 -1.7553746
00000000: 4496 2cbf 1db0 e0bf

weight f4 [2]
1.2133818 0.7792909
00000000: 1850 9b3f 9c7f 473f

bias f4 [2]
-0.110936776 -0.25612405
00000000: d232 e3bd b122 83be

running_mean f4 [2]
-1.0224282 0.31965816
00000000: edde 82bf 3caa a33e

running_var f4 [2]
3.3303204 7.7260137
00000000: f823 5540 813b f740

weight f4 [4, 2, 3, 3]
-0.05731318 0.094247885 0.10171021 -0.0605447 0.028268788 -0.027424347 0.036214817 -0.026561914
-0.057988428 0.0942758 0.30862552 0.02198103 0.3059153 0.33448538 0.15840535 0.5335549
0.31437355 0.20954113 0.18802819 0.3329972 0.27437147 0.44904724 0.38885492 0.20727307
0.2618053 0.28468162 0.14338447 -0.031650737 -0.13545184 -0.29439104 0.06404505 0.06675952
0.0421 -0.04328452 -0.16742907 -0.0031572767 -0.04319325 0.17632738 0.23873252 0.23375171
0.39006934 0.3637134 0.0050194464 0.11896927 0.21908519 0.1424304 0.03478496 0.33512318
-0.14447807 0.13677958 0.08495528 0.008765962 0.15534943 -0.034047004 -0.080157205 -0.5323641
-0.3529118 -0.35988322 -0.29614055 -0.20872511 -0.29991168 -0.08000581 0.12972033 -0.08358256
-0.22673394 -0.18574746 -0.12209219 -0.105089076 -0.04845125 0.07522368 0.074501336 0.0065169996
00000000: 3ac1 6abd 0905 c13d 714d d03d b8fd 77bd
00000010: f293 e73c 06a9 e0bc fd55 143d 5f98 d9bc
00000020: 4685 6dbd ac13 c13d 2a04 9e3e 9011 b43c
00000030: eea0 9c3e ab41 ab3e 0335 223e 0e97 083f
00000040: 92f5 a03e f391 563e 768a 403e 9c7e aa3e
00000050: 6b7a 8c3e 85e9 e53e fe17 c73e 643f 543e
00000060: 580b 863e cac1 913e 61d3 123e 34a4 01bd
00000070: e3b3 0abe 6cba 96be 0d2a 833d 37b9 883d
00000080: 0d71 2c3d 1c4b 31bd 8772 2bbe 50ea 4ebb
00000090: 68eb 30bd 2a8f 343e 4c76 743e 9c5c 6f3e
000000a0: 2bb7 c73e a538 ba3e 2b7a a43b 29a6 f33d
000000b0: de57 603e 46d9 113e ad7a 0e3d 4495 ab3e
000000c0: 0ff2 13be f20f 0c3e 09fd ad3d 1c9f 0f3c
000000d0: ec13 1f3e df74 0bbd 7629 a4bd 0349 08bf
000000e0: dbb0 b4be 9d42 b8be bc9f 97be 09bc 55be
000000f0: 068e 99be 16da a3bd 68d5 043e 552d abbd
00000100: f12c 68be 9534 3ebe 780b fabd f138 d7bd
00000110: d174 46bd df0e 9a3d 2894 983d 8e8c d53b

bias f4 [4]
-0.00026902085 -0.0008204364 0.0007801983 0.0015396375
00000000: 5e0b 8db9 8e12 57ba 3986 4c3a a9cd c93a

weight f4 [4]
1.3306836 1.408283 1.0813148 1.4466561
00000000: d753 aa3f 9e42 b43f 8668 8a3f 072c b93f

bias f4 [4]
0.6319295 -0.0645293 0.26052934 0.68738836
00000000: 22c6 213f f027 84bd 1a64 853e aff8 2f3f

running_mean f4 [4]
0.52339864 0.52686614 0.6031273 -0.65669423
00000000: 74fd 053f b3e0 063f 8d66 1a3f 1d1d 28bf

running_var f4 [4]
1.0103111 0.4198369 0.39453834 0.4534271
00000000: e051 813f ddf4 d63e ee00 ca3e 9927 e83e

weight f4 [4, 4, 3, 3]
0.12568146 -0.111879066 0.3658534 0.2700248 -0.014719819 0.13797335 -0.114110805 0.11718318
-0.10519744 -0.21394376 -0.24253316 -0.2902139 0.013660517 -0.08938507 -0.22742686 -0.08238218
-0.07144332 -0.05680831 0.28958967 0.17288719 0.31911376 0.23557152 -0.14458776 0.22417778
0.19112669 0.1652252 0.27201885 0.02590039 0.19482265 0.055088967 -0.201064 -0.40316144
-0.24374287 0.22948116 -0.13362628 -0.17150545 0.016433645 0.16525754 0.09263607 0.34792492
0.14412439 0.34024352 0.51880103 0.41377422 0.34807152 0.13153617 0.17473628 0.25643927
0.030069947 0.03199777 0.14748001 0.22533454 0.21805103 0.19090836 0.098187365 0.16160928
0.046926428 0.100827135 0.0129420515 0.20155266 0.24008913 0.07935491 0.18641976 -0.41036525
-0.55895066 -0.48533285 -0.40010488 -0.3435235 -0.1523705 -0.24691314 -0.087002076 0.10910702
-0.4298874 -0.26971048 -0.30607292 -0.34190708 -0.18612476 -0.16212694 -0.1679078 -0.2143532
0.15041198 0.2236833 0.13337903 0.22113933 0.43921503 0.07323336 0.37932307 0.424629
0.57206637 0.08594771 -0.21620886 -0.09385906 -0.1011898 0.2330009 0.050679997 -0.11383678
0.08616781 -0.03563947 0.138488 0.036692377 0.04698204 -0.01395059 -0.023786515 -0.18527631
-0.13826068 0.00073457416 -0.20831096 0.13246344 0.014453723 -0.06084401 -0.06883999 -0.07750907
0.06558858 0.03139888 -0.36714572 -0.2810127 -0.09526001 -0.22915332 0.006185088 -0.021472715
0.23380587 0.11607946 -0.16127294 -0.1184156 -0.04378144 -0.0071722628 -0.0089745885 -0.033198882
-0.08540716 -0.1825074 0.10485635 -0.05899585 -0.1715181 -0.14215662 -0.12057925 0.6510858
0.46372992 0.47184536 0.18430564 -0.21717745 0.100285865 -0.53436106 -0.3257314 -0.29714352
00000000: a4b2 003e da20 e5bd 2351 bb3e b140 8a3e
00000010: 652b 71bc e348 0d3e edb2 e9bd bcfd ef3d
00000020: c171 d7bd 1314 5bbe 9d5a 78be eb96 94be
00000030: 5cd0 5f3c 850f b7bd 96e2 68be fdb7 a8bd
00000040: e050 92bd d5af 68bd 1945 943e 5709 313e
00000050: e162 a33e a939 713e d00e 14be dc8e 653e
00000060: b7b6 433e cb30 293e 0e46 8b3e 0e2d d43c
00000070: 977f 473e f8a4 613d b9e3 4dbe 2d6b cebe
00000080: bb97 79be 1cfd 6a3e 54d5 08be 209f 2fbe
00000090: da9f 863c 4639 293e fbb7 bd3d 3723 b23e
000000a0: 5895 133e 6634 ae3e 25d0 043f 37da d33e
000000b0: 6e36 b23e 6bb1 063e 11ee 323e 024c 833e
000000c0: 4055 f63c 1810 033d 0005 173e 19be 663e
000000d0: c548 5f3e 7b7d 433e 7516 c93d e77c 253e
000000e0: ed35 403d 757e ce3d e60a 543c d263 4e3e
000000f0: edd9 753e d484 a23d d2e4 3e3e 651b d2be
00000100: 6417 0fbf 8c7d f8be 8cda ccbe 50e2 afbe
00000110: 0307 1cbe ccd6 7cbe 252e b2bd 8073 df3d
00000120: 341a dcbe 7e17 8abe 97b5 9cbe 720e afbe
00000130: 7d97 3ebe 9b04 26be 06f0 2bbe 687f 5bbe
00000140: 9905 1a3e 3c0d 653e 8394 083e 5972 623e
00000150: cbe0 e03e 5ffb 953d a236 c23e f968 d93e
00000160: f172 123f 5a05 b03d db65 5dbe 2e39 c0bd
00000170: 993c cfbd ca97 6e3e d495 4f3d 4223 e9bd
00000180: c078 b03d b1fa 11bd cccf 0d3e bf4a 163d
00000190: 3d70 403d 0491 64bc f0db c2bc 13b9 3dbe
000001a0: 3594 0dbe 7090 403a 784f 55be 7fa4 073e
000001b0: 4fcf 6c3c 9237 79bd fbfb 8cbd 13bd 9ebd
000001c0: 4e53 863d 1d9c 003d 86fa bbbe e6e0 8fbe
000001d0: ae17 c3bd 2ba7 6abe 47ac ca3b 8ce7 afbc
000001e0: ce6a 6f3e 11bb ed3d bc24 25be e183 f2bd
000001f0: 2b54 33bd 4d05 ebbb 270a 13bc 8dfb 07bd
00000200: f3e9 aebd 38e3 3abe edbe d63d a2a5 71bd
00000210: 71a2 2fbe 8191 11be 41f2 f6bd 8fad 263f
00000220: 026e ed3e b795 f13e 9eba 3c3e c463 5ebe
00000230: ad62 cd3d e3cb 08bf 44c6 a6be 3223 98be

bias f4 [4]
-0.75828785 -0.014782799 0.05250869 -0.39772215
00000000: 271f 42bf 8e33 72bc 5a13 573d 3da2 cbbe

weight f4 [4]
0.7983916 0.8834034 1.0403942 1.2607155
00000000: 6463 4c3f ba26 623f a32b 853f 205f a13f

bias f4 [4]
-0.111797124 0.3991929 0.24032442 -0.1713473
00000000: e4f5 e4bd 0363 cc3e 9b17 763e ab75 2fbe

running_mean f4 [4]
-2.0214083 -0.5389394 -0.34093416 -0.9532705
00000000: c15e 01c0 eff7 09bf ec8e aebe 8909 74bf

running_var f4 [4]
3.0140617 19.676508 3.8628287 3.3178792
00000000: 63e6 4040 7d69 9d41 9638 7740 2258 5440

weight f4 [8, 4, 3, 3]
0.0490729 -0.18289335 -0.35124314 -0.09415064 0.050536495 -0.04392955 -0.0135239875 -0.06818723
-0.22273627 0.027501307 0.12888339 0.07305041 0.24242896 0.023827968 0.07623397 0.061420023
-0.17482173 -0.5312561 -0.07049134 -0.0030059866 0.2637163 -0.10676704 -0.13148479 0.10832428
-0.4112418 -0.2938676 -0.19043109 0.15005043 0.011122047 0.0654471 0.117968366 0.048714336
0.046703134 -0.06616506 -0.05353887 0.18246667 0.1664068 0.052794408 0.06459958 0.022793867
0.051016297 0.033817865 -0.18121615 -0.062290408 0.07939785 0.23734644 -0.07124163 -0.30284393
0.118829325 0.054485448 -0.2018466 -0.03831728 0.08581359 -0.02320219 0.09454986 0.32902813
0.24038096 0.2833095 0.3188007 0.095314965 0.06553543 0.21086647 0.090995036 -0.13965356
-0.32444856 -0.31278846 0.29981866 -0.06811703 -0.23325881 0.075910635 -0.07391267 -0.18414532
0.17713733 0.14363028 0.046751164 0.076533 0.2348534 0.14366147 0.06921857 0.09139236
0.1399761 0.07759112 -0.26047665 -0.42460075 0.07724925 -0.21870475 -0.07563395 0.08633206
0.08061359 0.2178945 -0.30925485 -0.045573067 -0.18978785 -0.22399999 -0.03622773 -0.086202055
-0.18582694 -0.037428856 0.109114856 -0.18529487 0.08678449 0.021946229 0.05564934 -0.015022405
-0.0501806 0.23432353 -0.09510725 -0.39385048 0.1298777 0.112771854 0.30408698 -0.15561959
-0.1413598 0.20364103 0.06365763 -0.03458662 0.120972335 0.19149527 0.12649786 0.09559437
-0.012336332 0.07080636 -0.17286445 0.22681148 0.046037085 0.101024084 0.16767754 0.046055045
-0.094774954 0.15748599 0.032082684 -0.2544311 0.22162327 0.05627361 -0.2522521 0.3179911
0.21940292 0.09733831 0.023545695 0.19581082 0.30001262 -0.45219335 0.05807623 0.1424756
-0.3289341 -0.08633791 -0.07677501 0.0008524243 -0.092808515 -0.18179871 0.1259545 0.014913044
0.07760091 -0.13253981 0.12829511 0.26350716 -0.26204333 0.09806255 0.14591084 -0.33074763
0.04033991 -0.016326906 0.08580134 0.095439695 0.15571475 0.06374648 0.19335076 0.30350202
0.1407785 0.23894933 0.027990261 0.06291985 -0.043062974 -0.3591334 0.28233153 -0.043814924
-0.22668809 0.1486845 -0.08191954 0.013947748 -0.38399187 -0.08561285 -0.4244749 -0.06430056
-0.15854119 -0.259161 -0.08436472 -0.10423188 -0.0013978101 -0.15877269 0.12744337 0.0052593797
-0.19568558 0.124999695 0.09265607 -0.14371613 -0.018558165 -0.015923312 0.043106828 -0.10194727
0.08712842 -0.101016514 -0.37075508 -0.025619093 0.010665195 -0.10748669 0.095039956 0.29550537
0.14455715 -0.03167484 0.102142386 -0.054272167 -0.09154099 -0.12480355 -0.27440092 -0.2273194
-0.023823362 0.120656386 0.21256727 -0.17075613 0.1398522 0.04257364 -0.20454858 -0.19387771
-0.31102273 0.11180855 -0.15632564 0.0258571 -0.07684318 -0.06583131 -0.17571153 0.0081556635
0.12902571 -0.33710477 -0.059666798 -0.18484938 -0.29074177 -0.10446684 -0.09071647 -0.21011467
-0.033739123 -0.29171717 -0.37180126 -0.29264107 0.10422572 0.02880412 -0.13909478 -0.111202896
-0.068786025 0.21701418 0.048007563 0.109411865 -0.08652336 0.082024135 0.22082573 -0.055080794
00000000: aa00 493d 6548 3bbe 24d6 b3be 0dd2 c0bd
00000010: 5bff 4e3d 79ef 33bd b793 5dbc bfa5 8bbd
00000020: fa14 64be 6c4a e13c 02fa 033e 749b 953d
00000030: 4c3f 783e df32 c33c 8e20 9c3d 9093 7b3d
00000040: 7804 33be 6600 08bf c35d 90bd 1600 45bb
00000050: d305 873e aea8 dabd f3a3 06be 1fd9 dd3d
00000060: 498e d2be d075 96be 5e00 43be d2a6 193e
00000070: 3f39 363c 2109 863d 6699 f13d af88 473d
00000080: c94b 3f3d 8c81 87bd 934b 5bbd 8bd8 3a3e
00000090: 8b66 2a3e f33e 583d c94c 843d 34ba ba3c
000000a0: 77f6 503d 9a84 0a3d ba90 39be 3a24 7fbd
000000b0: 579b a23d f20a 733e 22e7 91bd 5c0e 9bbe
000000c0: ca5c f33d 222c 5f3d e0b0 4ebe 95f2 1cbd
000000d0: 09bf af3d 8512 bebc 5ba3 c13d 6076 a83e
000000e0: 6d26 763e f10d 913e d839 a33e 7e34 c33d
000000f0: 7137 863d 61ed 573e 9b5b ba3d 5801 0fbe
00000100: 1f1e a6be cf25 a0be d581 993e f180 8bbd
00000110: 66db 6ebe 0977 9b3d 875f 97bd 9790 3cbe
00000120: 7d63 353e d113 133e 267e 3f3d 55bd 9c3d
00000130: 697d 703e fe1b 133e 77c2 8d3d eb2b bb3d
00000140: e555 0f3e 18e8 9e3d 325d 85be 4565 d9be
00000150: db34 9e3d 23f4 5fbe f9e5 9abd ddce b03d
00000160: bd18 a53d bc1f 5f3e a756 9ebe d3aa 3abd
00000170: bf57 42be 4160 65be 8763 14bd b48a b0bd
00000180: 6b49 3ebe 004f 19bd 9c77 df3d f0bd 3dbe
00000190: 11bc b13d 94c8 b33c 90f0 633d 8920 76bc
000001a0: 2c8a 4dbd 82f2 6f3e 97c7 c2bd c5a6 c9be
000001b0: a9fe 043e eef4 e63d 4ab1 9b3e be5a 1fbe
000001c0: a0c0 10be 4687 503e ee5e 823d b3aa 0dbd
000001d0: 58c0 f73d 5617 443e a888 013e fbc6 c33d
000001e0: 541e 4abc ed02 913d 6103 31be 4541 683e
000001f0: 6291 3c3d b7e5 ce3d a9b3 2b3e 37a4 3c3d
00000200: 5f19 c2bd 0244 213e 2269 033d cb44 82be
00000210: 36f1 623e 287f 663d 3027 81be bbcf a23e
00000220: 29ab 603e 4f59 c73d e7e2 c03c a282 483e
00000230: 419b 993e e385 e7be 57e1 6d3d 20e5 113e
00000240: 0d6a a8be eed1 b0bd 373c 9dbd 3a75 5f3a
00000250: 6412 bebd 7129 3abe 37fa 003e d755 743c
00000260: 3aed 9e3d 84b8 07be cb5f 033e 69ea 863e
00000270: 8b2a 86be 05d5 c83d a769 153e c157 a9be
00000280: 763b 253d 01c0 85bc 9db8 af3d e375 c33d
00000290: b073 1f3e 848d 823d befd 453e 9e64 9b3e
000002a0: 3d28 103e 22af 743e d54b e53c 1fdc 803d
000002b0: cd62 30bd 55e0 b7be c28d 903e 4777 33bd
000002c0: ec20 68be c040 183e 6fc5 a7bd 1885 643c
000002d0: 959a c4be ca55 afbd c654 d9be 03b0 83bd
000002e0: 9f58 22be c0b0 84be 69c7 acbd 8677 d5bd
000002f0: b936 b7ba 4f95 22be 8480 023e e056 ac3b
00000300: cd61 48be d7ff ff3d 77c2 bd3d 522a 13be
00000310: 4b07 98bc 9b71 82bc c990 303d bbc9 d0bd
00000320: 6370 b23d bfe1 cebd 9cd3 bdbe 22df d1bc
00000330: 12bd 2e3c fb21 dcbd 4fa4 c23d 7b4c 973e
00000340: ca06 143e 7abd 01bd 0730 d13d 7e4c 5ebd
00000350: d879 bbbd 0199 ffbd 477e 8cbe 6bc6 68be
00000360: 3629 c3bc b21a f73d 3cab 593e b2da 2ebe
00000370: 6a35 0f3e b261 2e3d 2f75 51be e187 46be
00000380: 5f3e 9fbe e2fb e43d d413 20be 45d2 d33c
00000390: f55f 9dbd 91d2 86bd b9ed 33be 559f 053c
000003a0: 511f 043e ff98 acbe 2c65 74bd 2849 3dbe
000003b0: 1bdc 94be b6f2 d5bd 8ec9 b9bd 4d28 57be
000003c0: 0932 0abd f45b 95be bc5c bebe 0dd5 95be
000003d0: 4b74 d53d 9ef6 eb3c dd6e 0ebe 58be e3bd
000003e0: b0df 8cbd f738 5e3e 94a3 443d 5413 e03d
000003f0: 2933 b1bd 45fc a73d 2420 623e 669c 61bd

bias f4 [8]
7.639197e-05 0.0003855012 0.0008345449 -0.00021260066 0.0017947996 0.0031627014 0.0016145593 -0.00016182371
00000000: a034 a038 181d ca39 5cc5 5a3a 8eed 5eb9
00000010: 7b3f eb3a 5345 4f3b 9f9f d33a 39af 29b9

weight f4 [8]
1.3134094 1.1107028 1.2199099 0.98778075 1.3582369 1.3482125 1.3189024 1.4986
00000000: cd1d a83f 822b 8e3f 0226 9c3f 33df 7c3f
00000010: b5da ad3f 3a92 ac3f cbd1 a83f 20d2 bf3f

bias f4 [8]
-0.06830579 -0.17792802 0.049281918 0.014850383 0.23533021 -0.1824917 -0.4135179 -0.063114665
00000000: e8e3 8bbd c332 36be d6db 493d 054f 733c
00000010: 67fa 703e 1bdf 3abe 9eb8 d3be 4342 81bd

running_mean f4 [8]
-0.56638044 0.42766798 -0.5141601 0.7255609 0.3655456 -0.936422 -1.1460195 -0.24862425
00000000: 4ffe 10bf 4cf7 da3e ff9f 03bf 5cbe 393f
00000010: cb28 bb3e 5ab9 6fbf c4b0 92bf 5b97 7ebe

running_var f4 [8]
0.63247085 0.30241036 0.27441624 0.62402326 0.43570882 0.61828667 0.69654304 0.39311635
00000000: 9ce9 213f 88d5 9a3e 4980 8c3e fdbf 1f3f
00000010: 3a15 df3e 0948 1e3f a550 323f 8c46 c93e

weight f4 [8, 8, 3, 3]
0.09557967 0.025478272 -0.009882388 -0.039522424 -0.111232065 -0.15404567 0.3303697 0.3314619
0.32243592 0.13987257 0.43513584 0.26292485 0.04472182 -0.048658725 0.19996002 0.17950799
0.17456853 0.22477005 0.032819174 -0.147329 -0.11025233 0.023088273 0.09785566 0.054846637
-0.10238417 -0.06098523 -0.10896328 -0.05413245 -0.050831802 -0.28512537 -0.03492853 -0.03248641
-0.011999731 0.107423864 -0.04050364 0.029152619 -0.28258243 -0.2531564 -0.28828895 -0.104915954
-0.08607235 -0.1139156 -0.079063766 -0.0151009625 0.049380004 0.49307877 0.08539574 0.17834663
0.16450027 0.11005454 0.16384074 0.2845293 0.14941846 0.13488844 -0.0410967 -0.28860125
-0.04886815 0.12812872 0.08290336 -0.07643498 -0.027547894 0.034606874 -0.41181248 0.5233506
0.3950668 0.3413896 -0.14291017 -0.027207395 0.015509291 0.1700838 0.103590816 0.0899395
-0.042921137 0.022156345 -0.0016237965 -0.20830257 0.038030386 0.088312745 -0.13056824 -0.2978778
-0.5288673 0.11546062 -0.016317852 0.108973704 0.20247903 0.012699086 0.17432158 0.09541163
0.16904868 0.23664832 0.20682773 0.3339124 0.3464052 0.29112265 0.39345083 0.2470724
0.19035518 0.044332877 0.1711762 -0.13491161 -0.08423738 -0.18017472 -0.019654742 -0.07563954
-0.3756949 -0.2424954 -0.1169192 -0.36061224 -0.04297099 0.007948741 -0.35336554 0.40498096
0.4244013 0.2281702 -0.5036336 -0.2978713 -0.4885235 -0.17799343 -0.016273797 -0.10958199
-0.19438677 0.20992267 0.2180002 0.02970663 0.07989118 0.12804778 0.22924368 0.07763367
0.18220972 0.021622967 0.05160193 0.09473063 0.064641915 -0.018439889 -0.1799032 0.08554906
0.11637638 0.28119373 0.10773021 -0.16671933 -0.0631293 0.14326833 -0.0067130206 0.2037897
-0.23280692 -0.14257677 0.09987725 -0.16361323 0.02498595 0.17539732 -0.009705857 -0.024719933
0.116321966 0.08114035 -0.003878838 -0.10312789 -0.093513444 -0.035498224 -0.01881946 -0.10605773
-0.043480802 -0.08877034 -0.1304379 0.27880025 0.39595675 0.07441245 0.30372068 0.25969467
-0.053510565 0.10996487 0.1222739 -0.20632912 -0.14350641 -0.03395412 0.2894947 0.043466642
0.039087523 0.07954428 -0.022355199 -0.08334876 0.17865212 0.0033307339 0.18330763 0.10928895
0.007355148 0.18884017 0.2545327 0.018101307 0.20298535 0.5356243 0.3430395 0.23934087
0.35932055 0.10843053 0.030243553 0.38386396 0.18841538 0.29032063 -0.08123824 -0.15753628
-0.4337946 -0.22634988 0.06210857 -0.3009531 0.13306198 -0.016551878 -0.435661 -0.058630288
-0.17010646 -0.3575006 -0.14075181 -0.16702332 -0.31868595 -0.22695845 -0.09030369 -0.27141905
0.11363312 0.2298655 0.31666 0.07521972 -0.08016877 -0.061765406 -0.12511349 0.011914511
0.38016933 0.09548921 -0.20056884 -0.28101057 0.02625111 0.039396845 -0.0660569 -0.17633191
-0.12052114 -0.12736122 -0.39144725 -0.0039898646 -0.15259208 -0.22524579 -0.13996905 0.019491276
-0.47153494 0.061065957 0.020880306 -0.02263754 0.004220011 0.08800774 0.0675646 0.21323925
0.33772314 -0.1563003 0.04859589 0.17761447 0.14536197 0.18653722 0.42003414 0.025585433
00000000: 46bf c33d cfb7 d03c bde9 21bc 44e2 21bd
00000010: a3cd e3bd 26be 1dbe 3826 a93e 60b5 a93e
00000020: 5216 a53e c13a 0f3e 20ca de3e 169e 863e
00000030: 3a2e 373d 5f4e 47bd 52c2 4c3e f1d0 373e
00000040: 18c2 323e 1f2a 663e 666d 063d 6add 16be
00000050: f9cb e1bd 9e23 bd3c 8c68 c83d dea6 603d
00000060: cbae d1bd a6cb 79bd 2428 dfbd fdb9 5dbd
00000070: 0235 50bd f4fb 91be 3811 0fbd 7810 05bd
00000080: 859a 44bc 0b01 dc3d 25e7 25bd 79d1 ee3c
00000090: a5ae 90be b79d 81be 9c9a 93be 2dde d6bd
000000a0: b346 b0bd 954c e9bd 2fec a1bd 076a 77bc
000000b0: b042 4a3d d274 fc3e f6e3 ae3d 80a0 363e
000000c0: c272 283e 4664 e13d dec5 273e d3ad 913e
000000d0: 2701 193e 3220 0a3e 0355 28bd 8bc3 93be
000000e0: f829 48bd 2d34 033e 3dc9 a93d f189 9cbd
000000f0: 1fac e1bc f0bf 0d3d 16d9 d2be 4efa 053f
00000100: 3246 ca3e 9eca ae3e 0b57 12be 0be2 debc
00000110: ae1a 7e3c 732a 2e3e 6c27 d43d 3332 b83d
00000120: 13ce 2fbd 3981 b53c 92d5 d4ba 454d 55be
00000130: c0c5 1b3d 50dd b43d aeb3 05be 7083 98be
00000140: d963 07bf 9e76 ec3d 04ad 85bc 9b2d df3d
00000150: aa56 4f3e d40f 503c 5b81 323e 2c67 c33d
00000160: 191b 2d3e f053 723e a6ca 533e 91f6 aa3e
00000170: 065c b13e 070e 953e 6372 c93e 8c00 7d3e
00000180: 78ec 423e 6496 353d d048 2f3e 4526 0abe
00000190: a684 acbd b97f 38be fb02 a1bc e7e8 9abd
000001a0: 155b c0be b750 78be 5573 efbd 2ba2 b8be
000001b0: 5902 30bd 703b 023c 54ec b4be aa59 cf3e
000001c0: 214b d93e 73a5 693e 22ee 00bf 9682 98be
000001d0: c11f fabe e943 36be a050 85bc 866c e0bd
000001e0: 530d 47be f8f5 563e 723b 5f3e 525b f33c
000001f0: fd9d a33d f51e 033e dbbe 6a3e 67fe 9e3d
00000200: 2f95 3a3e a622 b13c 8c5c 533d 2202 c23d
00000210: fb62 843d 400f 97bc 8b38 38be 5834 af3d
00000220: bd56 ee3d a0f8 8f3e a8a1 dc3d 79b8 2abe
00000230: ef49 81bd efb4 123e e6f8 dbbb 3fae 503e
00000240: f064 6ebe a5ff 11be 728c cc3d 3a8a 27be
00000250: 56af cc3c 5b9b 333e 5105 1fbc 7581 cabc
00000260: 363a ee3d e92c a63d 1a34 7ebb b734 d3bd
00000270: fa83 bfbd 9666 11bd 452b 9abc cc34 d9bd
00000280: ed18 32bd 39cd b5bd 8391 05be e8be 8e3e
00000290: d8ba ca3e 8e65 983d 4781 9b3e b3f6 843e
000002a0: e52d 5bbd 4335 e13d bd6a fa3d f147 53be
000002b0: 58f3 12be 7a13 0bbd a638 943e 140a 323d
000002c0: 3d1a 203d 1de8 a23d 4022 b7bc c1b2 aabd
000002d0: 95f0 363e 7148 5a3b ffb4 3b3e e3d2 df3d
000002e0: 7403 f13b 515f 413e 1c52 823e 3149 943c
000002f0: 64db 4f3e ad1e 093f e0a2 af3e c615 753e
00000300: ddf8 b73e d310 de3d 54c1 f73c d189 c43e
00000310: f6ef 403e e8a4 943e 3c60 a6bd 3151 21be
00000320: 531a debe 43c8 67be 8e65 7e3d 8616 9abe
00000330: 6641 083e ce97 87bc f50e dfbe 5026 70bd
00000340: 6330 2ebe 520a b7be 3e21 10be 2908 2bbe
00000350: ce2a a3be cc67 68be 24f1 b8bd 70f7 8abe
00000360: 7bb8 e83d dd61 6b3e 4221 a23e cc0c 9a3d
00000370: 862f a4bd b9fd 7cbd c01d 00be 1535 433c
00000380: 8ea5 c23e d98f c33d eb61 4dbe 9ee0 8fbe
00000390: 910c d73c 965e 213d d748 87bd 5a90 34be
000003a0: cad3 f6bd fb6a 02be c66b c8be 69bd 82bb
000003b0: 1941 1cbe d5a6 66be 0c54 0fbe 2bac 9f3c
000003c0: 076d f1be 4c20 7a3d 2d0d ab3c 5d72 b9bc
000003d0: 0548 8a3b 673d b43d 4f5f 8a3d 645b 5a3e
000003e0: 0cea ac3e 300d 20be 7c0c 473d 91e0 353e
000003f0: c5d9 143e 9d03 3f3e b70e d73e 8b98 d13c

bias f4 [8]
-0.0003752094 0.00024848495 -7.76209e-06 0.00062383356 -0.00013225808 0.00019412683 -0.0005070135 -1.6609105e-05
00000000: c1b7 c4b9 1647 8239 ec39 02b7 c388 233a
00000010: c2ae 0ab9 868e 4b39 1ae9 04ba c853 8bb7

weight f4 [8]
4.192801 4.4746737 4.0578265 4.486132 4.688269 4.558273 4.2762237 4.180131
00000000: 6d2b 8640 8730 8f40 b7d9 8140 658e 8f40
00000010: 4d06 9640 5fdd 9140 d3d6 8840 a2c3 8540

bias f4 [8]
0.8604378 1.0272564 0.7564359 1.421766 0.907511 0.864227 1.2489644 1.1645519
00000000: a745 5c3f 237d 833f c8a5 413f 6efc b53f
00000010: a452 683f fb3d 5d3f 11de 9f3f 0910 953f

running_mean f4 [8]
1.2382998 0.6811477 0.77701473 -0.44192958 1.9171058 0.28602812 0.7917887 0.03151247
00000000: 9c80 9e3f b25f 2e3f 70ea 463f 9844 e2be
00000010: b963 f53f 4772 923e aab2 4a3f 3813 013d

running_var f4 [8]
0.69863784 1.4442145 0.56384814 1.02163 0.9714727 1.2090138 1.0177232 0.7619182
00000000: eed9 323f 05dc b83f 5a58 103f c6c4 823f
00000010: 6fb2 783f f7c0 9a3f c144 823f 120d 433f

weight f4 [4, 2, 1, 1]
0.2342972 0.1353152 0.12644693 0.047751702 0.040007096 -0.22426158 -0.17720585 -0.14114587
00000000: 9beb 6f3e 1190 0a3e 4e7b 013e 4a97 433d
00000010: 7bde 233d d4a4 65be 7375 35be 8b88 10be

bias f4 [4]
-1.1495705 -0.6616124 0.39202255 -0.26373768
00000000: 2025 93bf 6e5f 29bf 2eb7 c83e a008 87be

weight f4 [8, 4, 1, 1]
-0.21940282 0.12603916 0.057285927 0.1484153 0.09116954 -0.19209689 0.021178594 -0.14770563
-0.051924974 -0.08083123 0.016121399 0.007013888 0.18627253 -0.044591535 -0.19667488 -0.15060051
-0.0859148 -0.04900729 0.039869208 -0.018007465 0.14396955 -0.15287398 0.02694272 -0.20619683
-0.20850386 -0.04980568 0.029251749 -0.06556452 0.18191546 -0.09945885 -0.0004427493 -0.22189666
00000000: 22ab 60be 6910 013e a6a4 6a3d 2efa 173e
00000010: 19b7 ba3d 0cb5 44be bb7e ad3c 2540 17be
00000020: 48af 54bd d88a a5bd 0611 843c c2d4 e53b
00000030: 3abe 3e3e 9da5 36bd 2465 49be 0537 1abe
00000040: 19f4 afbd debb 48bd e54d 233d 6484 93bc
00000050: c16c 133e ff8a 1cbe fbb6 dc3c 4325 53be
00000060: 0982 55be 0a01 4cbd 5da1 ef3c b146 86bd
00000070: 0c48 3a3e 15b1 cbbd ce20 e8b9 e138 63be

bias f4 [8]
-0.0003752094 0.00024848495 -7.76209e-06 0.00062383356 -0.00013225808 0.00019412683 -0.0005070135 -1.6609105e-05
00000000: c1b7 c4b9 1647 8239 ec39 02b7 c388 233a
00000010: c2ae 0ab9 868e 4b39 1ae9 04ba c853 8bb7

weight f4 [10, 2]
1.1276331 0.3987508 0.3477098 -7.296441 0.5359927 0.71624994 0.86800396 0.6253446
-0.01957945 1.0872827 0.79816777 0.4652047 0.8411505 0.728707 -1.2724911 1.2973099
0.3584348 1.3870528 -0.5885283 1.8879166
00000000: 4856 903f 1129 cc3e 0507 b23e 727c e9c0
00000010: d136 093f 285c 373f 8235 5e3f 9516 203f
00000020: 1565 a0bc 142c 8b3f b954 4c3f 4f2f ee3e
00000030: a455 573f 8b8c 3a3f fde0 a2bf 400e a63f
00000040: c484 b73e f28a b13f caa9 16bf 40a7 f13f

bias f4 [10]
-1.2022343 1.1669372 -1.0806186 -1.0541998 -0.16952103 -1.2083324 -0.55438817 1.2231058
-0.69276273 0.35699204
00000000: d0e2 99bf 335e 953f b651 8abf 05f0 86bf
00000010: ec96 2dbe a3aa 9abf 62ec 0dbf bb8e 9c3f
00000020: e658 31bf a9c7 b63e

weight f4 [10, 4]
0.61379653 -0.24902214 -0.20338921 0.4755451 -0.07016943 -0.33919728 0.35414448 0.77676415
0.311169 0.17085616 -0.12502855 0.006646554 -0.5230262 1.4121233 2.0242026 -0.3901125
0.7139737 -0.3909015 0.05446104 0.5794998 0.05525021 0.5053744 0.5602331 -0.17932355
0.42650923 -0.397815 -0.07194 0.515433 0.46185815 -0.4743892 0.15796319 0.5387723
0.07981271 -0.113005534 -1.8984975 -0.16558431 0.06988078 -1.0047734 -0.6612489 0.3583475
00000000: c521 1d3f a9ff 7ebe 4345 50be a67a f33e
00000010: fdb4 8fbd 44ab adbe 6d52 b53e 04da 463f
00000020: 8b51 9f3e ebf4 2e3e 7c07 00be 56cb d93b
00000030: 0ce5 05bf 75c0 b43f 898c 0140 d3bc c7be
00000040: fbc6 363f 3e24 c8be 8a12 5f3d 195a 143f
00000050: 0b4e 623d 3760 013f 706b 0f3f 98a0 37be
00000060: 6b5f da3e 68ae cbbe 4755 93bd 6bf3 033f
00000070: ac78 ec3e 24e3 f2be 1ac1 213e fbec 093f
00000080: d974 a33d 726f e7bd f701 f3bf ef8e 29be
00000090: a81d 8f3d 6a9c 80bf 9c47 29bf 5379 b73e

bias f4 [10]
-0.3976393 0.028316185 -0.158959 0.5529725 -0.40662655 -0.08548333 -0.29720023 -0.36411697
0.20588255 -0.11655072
00000000: 6197 cbbe 58f7 e73c 26c6 22be 9b8f 0d3f
00000010: 5b31 d0be e211 afbd a12a 98be 8a6d babe
00000020: e0d2 523e 25b2 eebd

weight f4 [1, 2]
1.0488329 -6.19801
00000000: 2840 863f 1956 c6c0

weight f4 [1, 4]
1.1068938 0.8272692 1.7429808 0.2932391
00000000: b2ae 8d3f eac7 533f ff19 df3f 6f23 963e

weight f4 [10, 8]
-0.19272724 1.9222494 -1.3499446 -0.34144977 -3.3307986 -1.0421642 0.5610016 0.55139506
1.3938745 -1.2201355 1.6944655 -0.17501706 -1.5023218 -2.5316372 0.29828712 -0.8409523
-1.6793691 1.5741835 -0.37288192 0.3914569 0.6610842 -1.5546187 -1.8753009 0.6777886
-1.6355364 -2.2142065 -0.19160204 1.6820455 1.4792006 0.13112432 -2.4520261 -0.7312212
-1.2280135 0.25154293 1.7606454 -1.9671047 0.24373415 0.84787345 0.34652048 -2.1929767
1.7016662 -2.3977299 -1.3849534 0.18687934 0.11927883 -0.80520105 -0.89477956 1.0221034
1.527876 0.5118657 0.37771145 -3.1338744 -1.3354287 0.50487185 -2.240548 0.75570345
-1.2174397 -0.098532334 -0.92759377 0.97965544 0.45539066 -2.315925 1.4973793 -2.296675
-2.010115 -1.0320685 -0.2738557 -0.18916707 -2.1318753 1.8601682 -0.4557653 1.3035979
-0.2170569 -0.93122023 -2.385197 -1.2206383 0.77550954 1.3046687 0.8433139 -0.6850236
00000000: 4a5a 45be 450c f63f fcca acbf 81d2 aebe
00000010: ce2b 55c0 a365 85bf cd9d 0f3f 3a28 0d3f
00000020: 7b6a b23f 662d 9cbf 3fe4 d83f ac37 33be
00000030: 154c c0bf 5806 22c0 17b9 983e a648 57bf
00000040: 91f5 d6bf d87e c93f 61ea bebe 0a6d c83e
00000050: d03c 293f bffd c6bf dc09 f0bf 8e83 2d3f
00000060: 4259 d1bf 8fb5 0dc0 5333 44be 444d d73f
00000070: 7256 bd3f 7445 063e ffed 1cc0 5031 3bbf
00000080: 8c2f 9dbf 3cca 803e d45c e13f 16ca fbbf
00000090: 7295 793e 3c0e 593f 226b b13e bb59 0cc0
000000a0: 33d0 d93f 6874 19c0 2746 b1bf 4c5d 3f3e
000000b0: 7648 f43d a821 4ebf 4610 65bf 49d4 823f
000000c0: 7191 c33f a109 033f 6563 c13e 6691 48c0
000000d0: 54ef aabf 483f 013f 2365 0fc0 c875 413f
000000e0: 10d5 9bbf 52cb c9bd c976 6dbf b3ca 7a3f
000000f0: f728 e93e 1d38 14c0 20aa bf3f b9fc 12c0
00000100: b9a5 00c0 d21a 84bf d036 8cbe 03b5 41be
00000110: a570 08c0 fe19 ee3f 125a e9be 4cdc a63f
00000120: 2a44 5ebe 7364 6ebf 11a7 18c0 e03d 9cbf
00000130: cb87 463f 62ff a63f 6be3 573f b55d 2fbf

bias f4 [10]
0.56520706 0.198592 -0.28452164 0.046523284 -0.27375332 -0.1382472 -0.40910548 0.47800645
0.39480284 0.40848842
00000000: 69b1 103f b45b 4b3e d2ac 91be 338f 3e3d
00000010: 6529 8cbe ad90 0dbe 4676 d1be 43bd f43e
00000020: 9923 ca3e 6525 d13e
